roadpulse-backend/routes/model.pth (torch, 5821 bytes, 5 tensors)

net.0.weight f4 [32, 6]
00000000: aee5 faba 7589 0d3e 0586 3bbf 4e48 193e
00000010: 66b7 0dbd 966a d03e e2fa da3d 84bd bcbe
00000020: 54e7 72be c4ff 06be b3ce 92bf 7e5d 86be
00000030: 7f4b cc3d f85c 0fbc a9c2 333e 8e87 8dbf
00000040: 1319 c03e 1495 0dbe 268b 9e3d dcbc 3dbd
00000050: d2bd e0be c5ce f53e fa85 ae3d 3c96 393e
00000060: 24a8 523e 096f acbd 9aa0 72bc 8aab 3ebf
00000070: 675b 6fbe 64eb 013e 9c46 17bd 298e f3bd
00000080: 9256 a13d ad63 20be d8e8 133a 94c9 e0bd
00000090: e3e7 3e3c 8299 5bbf bb4a 85bc 1b54 f83e
000000a0: 4eeb 1a3f 1a28 cb3e 7a05 123c d380 b63e
000000b0: 8fba 9c3e b17b b43d dd9d ea3e 3475 97bd
000000c0: 9488 a4bf 268c c83d 4e44 943e a674 183e
000000d0: f0ac c8be e35a 9dbe 0ab2 e73d ddb9 c63d
000000e0: db47 663d 1647 1b3f fb79 0dbf ef53 a6be
000000f0: eb04 cbbf 8a51 68be bab3 b4bd aac2 b33e
00000100: 7f65 37bb 52c8 65be 0e4d 4dbf 67a5 103f
00000110: b261 f83e 47cb 8ebe cdd1 28be 024c bb3e
00000120: 4609 f0be f652 9a3d 78fe df3e 92a2 363e
00000130: 2cb7 36be 35d6 7abe b4fc 45be a75a 583d
00000140: ed38 debe cf9c cabe d2e8 883e 0044 a5ba
00000150: 4bee 95bb c043 723f b449 2f3c 8918 ea3e
00000160: 5122 a83e e82b a0be cb87 533f 1544 99bc
00000170: 3889 d83d 5d8e c63d f6d3 02bd 20b9 9abe
00000180: 7e85 003f 3ba0 11bf 3d31 cbbe a751 a3bc
00000190: b43b 873e 7478 b7bd b0d2 a33e 9d19 1f3e
000001a0: 7c68 663e e5c1 e9be d8c1 2e3d 445c 82be
000001b0: d1b0 9fbf 8ee6 803e 34fd 7c3d 26e4 2a3e
000001c0: 5b98 163e 2bbf abbe 2044 ee3c 19d0 21bf
000001d0: 4a97 c03e 4534 e43e 2264 f4bd b871 8cbe
000001e0: 7508 e9bd 659c 96be 46d5 5e3f 1054 7ebd
000001f0: c165 ecbd 3843 40bd e327 e3be efc6 833e
00000200: c368 06be f147 90bd db4c 323e cb41 92be
00000210: be51 1c3f e74b 213e ec85 cabe e527 44be
00000220: 20e6 0cbe 069f 8abe 276d bf3e a47e 04bf
00000230: 89bf bb3c c23d 093f 32bb 61be a31f 9ebe
00000240: b9c9 9d3e e1d8 dabe 1962 543e 3b74 033f
00000250: 32b1 35bc e0c1 7c3e d116 c6bc b352 18bc
00000260: 2c3c a83e 9f40 3f3d 7708 763d 8c88 cfbe
00000270: 9edb 0dbf c2d0 bcbe 2f39 f13d 7640 b0be
00000280: a7d7 453e 20ba e1bd 3879 cebf b1b7 e0bd
00000290: e7f6 dfbd 3e12 9cbe 4ac1 763e 9464 903e
000002a0: 39d8 ba3d dd26 03bf d2ff 0b3f b8c7 973e
000002b0: 2e86 1ebf 72e2 c73e 75ba 0f3e e236 e7be
000002c0: 0578 0d3e b6e3 ee3e c002 0cbe 6eca 973e
000002d0: d265 91bf 8ab1 533e 9bcb 88be 2f37 ed3d
000002e0: 9ba6 efbe 30ab dbbd 8e95 353f 50d1 f93e
000002f0: 86da 1bbd 8e98 34bd 832b da3e c040 cbbc
-0.0019141936 0.13821967 -0.7325137 0.14968988 -0.03459873 0.4070632 0.10692383 -0.3686334
-0.23721057 -0.13183504 -1.146933 -0.26243204 0.09975337 -0.008750193 0.17554726 -1.1056993
0.3751913 -0.138264 0.07741384 -0.04632269 -0.4389482 0.48009315 0.08521648 0.18123716
0.20571953 -0.08419616 -0.014808798 -0.744805 -0.23374711 0.1268745 -0.036932573 -0.11892349
0.0787784 -0.15663023 0.00056423014 -0.10975948 0.011651966 -0.8578111 -0.016270986 0.48501667
0.60515296 0.39679033 0.0089124385 0.3564516 0.30611083 0.08812655 0.45823565 -0.073954016
-1.285418 0.09792356 0.28958362 0.14888248 -0.3919444 -0.30733404 0.11313255 0.09703419
0.05622087 0.60655344 -0.5526425 -0.3248591 -1.5860876 -0.22687355 -0.088233426 0.35109454
-0.002798408 -0.22439697 -0.801957 0.56502384 0.48512036 -0.27889463 -0.16486283 0.36581427
-0.46882075 0.07535355 0.43748832 0.17835453 -0.17843312 -0.24495776 -0.1933468 0.052820828
-0.43402806 -0.3957276 0.26740128 -0.0012608767 -0.004575526 0.9463463 0.010698725 0.45721844
0.3283868 -0.31283498 0.8262908 -0.018709222 0.105730474 0.096951224 -0.031940423 -0.30219364
0.5020369 -0.5688512 -0.39686003 -0.019936396 0.26412737 -0.089585215 0.3199668 0.15537114
0.22500795 -0.45655742 0.042665333 -0.25461018 -1.2475835 0.251759 0.06176491 0.16688594
0.14706556 -0.33544287 0.029085219 -0.63208157 0.37615424 0.44571128 -0.11933161 -0.2743051
-0.11378566 -0.29416195 0.8704418 -0.062091887 -0.115428455 -0.046939105 -0.4436637 0.25737712
-0.13125901 -0.07044972 0.1741213 -0.2856582 0.6106223 0.1575161 -0.395553 -0.19155844
-0.1375966 -0.2707445 0.37387964 -0.5175574 0.02291848 0.5360986 -0.22044066 -0.30883512
0.30817965 -0.4274359 0.20740546 0.5134923 -0.01108961 0.24683332 -0.024180802 -0.009297061
0.32858407 0.046692487 0.060066666 -0.40533864 -0.55413234 -0.3687802 0.11778485 -0.3442418
0.19320546 -0.11021829 -1.6130743 -0.10972536 -0.10935765 -0.30482668 0.24097171 0.28201735
0.091232724 -0.51231176 0.54687226 0.2964456 -0.6192349 0.39039952 0.14035971 -0.4515906
0.13815315 0.46658105 -0.13672924 0.2964663 -1.1359198 0.20673195 -0.2671784 0.11582791
-0.46806797 -0.10726011 0.7093133 0.48792505 -0.038050197 -0.0440908 0.42611322 -0.024811149

net.0.bias f4 [32]
00000000: 9af9 f9be bc66 ccbf 9477 ddbe 0f48 dfbe
00000010: c6bd 4ebe dada 723e c454 a8be d01a 1b3f
00000020: c14e 0abf 0376 cfbd 9927 bbbe 9ab1 84be
00000030: bfee fa3e 184c cc3e b003 e2be 84cf 5c3f
00000040: 1ae5 f13e ae4b b63e 9c6c 21bf 39d2 c8bd
00000050: 1c9d 45be 35b8 063f dd49 423f 527c 18c0
00000060: f16e 5c3e d7f4 003f 6d48 053f 5cd6 a6bd
00000070: c5c6 98be fedc cb3e 9cf2 a9bc d7bf 883e
-0.48823243 -1.5968852 -0.43255293 -0.43609664 -0.2018958 0.23716298 -0.3287717 0.6058779
-0.5402642 -0.10129931 -0.36553648 -0.2591675 0.49010274 0.39901805 -0.44143438 0.86254144
0.47245103 0.35604614 -0.6305635 -0.09805722 -0.19298214 0.5262483 0.75893956 -2.382588
0.21526696 0.50373596 0.5206364 -0.081463546 -0.2983915 0.3981704 -0.020745568 0.26708862

net.2.weight f4 [16, 32]
00000000: d72a 09be 845b 173f 2d60 323e e7d3 3dbc
00000010: 208e b8be b38a 5ebd 2e16 31be 5b23 64be
00000020: d458 fe3e 90f7 abbe 43ae 583f 072a e13d
00000030: ec03 c43d 9e12 92bc 27a3 c6be 32da 84bf
00000040: d7c6 3bbf a62f e3be b14a 573f 3539 aa3d
00000050: 7251 7b3e f0c5 863d b6ac 1bbf c353 10be
00000060: 0467 03bf 94c2 cbbd 4f93 443e 5bf4 243f
00000070: 8b73 74be 285a f5bd a96c a63e 1347 2dbf
00000080: 49de 8fbd 9a80 92bf 07f7 94be 7cbd 07bf
00000090: b098 6c3b b224 1b3c 5c41 8dbe d380 9abe
000000a0: 1c8f e23e 5c98 8abe 5169 113f 8812 663c
000000b0: cd26 5f3d 92d4 483e 58a6 d4be 2430 b0be
000000c0: cd30 263e 3870 c5bc d526 5a3f aed3 ea3d
000000d0: be57 0f3e 6a55 773e 813c 39bf e3ea 50be
000000e0: 488d 36be 4b7c fe3c 5805 c13e 4c64 7a3f
000000f0: 98ec 173e 59ca 4c3e c021 3a3e 3d72 c13e
00000100: cbdb 01bd 71da 56bf d9f8 11be d6a0 e7bd
00000110: c4ce 563e 7940 52bd 60b7 1dbe af0e 04be
00000120: 62a7 163f 51f4 ecbe a4e4 3f3f 98e9 ed3e
00000130: a2ac c63d 1cef a03e 60b3 57be 0669 59bc
00000140: f6a9 aa3e 6d03 97be 8e95 583f f553 8dbc
00000150: 0d7c fe3d 0932 cabc 70e9 cbbd c282 30be
00000160: da26 7f3e 49a8 353e 9ea2 5a3e 85a3 583f
00000170: 6baa 85be 8778 c73e f2c8 1e3e d52f f7be
00000180: ee47 1bbd d8eb cdbd 2b81 2b3d 6c66 0a3d
00000190: 128b 7dbd 50d0 1ebe d1fb 86be 9481 3dbd
000001a0: 6590 d5bd d73f 8cbe 79e9 2bbe a1b4 dfbe
000001b0: 10c9 08bf 5a83 e6be af4b 3abe 06a5 61bd
000001c0: a643 3cbe 2cd0 533a 5792 8cbe 186e fc3d
000001d0: 38e9 d1bd 3f60 14bf f3b8 b5bc 35f1 83be
000001e0: 898c 26be 3d2f 06bf c2ce a9be a1f6 94bd
000001f0: 1787 e13d 6fb6 d9bd 9b98 ce3c 8b7c fa3b
00000200: c07e 393d cbfd 09be 96d2 ed3e 5076 8b3e
00000210: 821c 0cbf 7d4c 35be 697d 6c3d 03d1 713e
00000220: 5fbb 803e 407e 34be 8602 5ebe faaa 98bf
00000230: 8519 66be 8d7e 09bf 9125 413e 80da 143e
00000240: 4d7b 0a3c 4494 883d eeec 8c3e d61a 4d3e
00000250: b824 8e3e c548 49be 4f58 ef3d 7099 05bf
00000260: 1af8 b53e 9473 5d3c c509 56be 4721 293e
00000270: ff8d 69bd ca6a 853e a316 ecbd fc62 27bc
00000280: b81c 64be 5c18 9bbe 03c1 af3e 7df3 2c3e
00000290: 71be b23d f5fd 9bbd edad 0b3e fff9 c4be
000002a0: 88e8 1e3f 0832 d5be 7246 873f 5c8e 26be
000002b0: f68f c6bd bd72 bf3d 8072 d8be 8556 3fbf
000002c0: 5845 16bf b846 1abe bfcf 143f 7244 533c
000002d0: 6178 edbc d0c4 493e 68f1 45be 22cb bfbd
000002e0: 4819 e0bd aa51 663e 2daa 71bd 6546 383f
000002f0: eba6 d03b c5be 9bbd 861b e43e f507 e8bd
00000300: 09eb 073e b4b3 a8be d9ff 423d 1a42 c73e
00000310: fce5 72be 1c8a 2cbd 4e0c 8f3e de3a ac3e
00000320: 22d8 2e3e 3138 193e 8da8 25bf a916 ecbc
00000330: a0f3 3abe beb1 11bd c7d3 0d3f 5a86 a73e
00000340: e1df 933e 0eb4 273d c765 f6be be0c 9f3e
00000350: 73bf 503e 8241 bebe e0a8 6f3e 9749 26bf
00000360: 420c 8f3e dad9 7fbd fce4 afbe 7640 a0be
00000370: cffc ae3e 8db7 003f e4a2 db3c 0a4c 1a3e
00000380: c538 ec3d 9253 553e 91bb b93e 6f00 c5bd
00000390: daad ed3d df3a 9b3b 12ac 43be 0877 b3bc
000003a0: 89ba 853e 8ebe a9bd 3e43 1a3f b832 173f
000003b0: b84d 323f 1892 f63e cf65 0bbf 12cb f23c
000003c0: 492c f1bd bcd4 8c3e fe9a 443f 117f f3bd
000003d0: 11ee 84bd 8658 103f 4553 c73c 68ee 0c3f
000003e0: 39e3 73bd c8e9 853e 21db ed3e d695 163f
000003f0: ad11 9cbe 46b9 05be be8d a03e 41aa 393e
-0.13395248 0.59124017 0.174195 -0.011586166 -0.36045933 -0.054331493 -0.17293617 -0.22279112
0.49677145 -0.33587313 0.846409 0.10994344 0.095710605 -0.017831143 -0.3879635 -1.0379088
-0.7335028 -0.4437229 0.84098345 0.083116926 0.24542788 0.06580722 -0.6081041 -0.14094453
-0.51329064 -0.09949222 0.19196819 0.64435357 -0.23872201 -0.119800866 0.32504776 -0.67686576
-0.070248194 -1.1445496 -0.29094717 -0.53023505 0.003610175 0.009469198 -0.27588928 -0.3017641
0.4424981 -0.27069366 0.56801325 0.014042504 0.054480363 0.19612339 -0.4153316 -0.34411728
0.16229554 -0.024101362 0.852155 0.11466156 0.13998315 0.24153677 -0.72357947 -0.20402102
-0.17827332 0.031065127 0.3769939 0.9780929 0.14836347 0.19999065 0.18176937 0.3778247
-0.03170375 -0.83927065 -0.14255084 -0.11309974 0.20977312 -0.051331017 -0.15401983 -0.12896226
0.58849156 -0.4628015 0.7495825 0.4646728 0.09700896 0.31432426 -0.2106452 -0.013269668
0.33332795 -0.294948 0.846032 -0.017251948 0.124260046 -0.024682062 -0.09956634 -0.1723738
0.24917164 0.17739977 0.21351096 0.8462451 -0.2610658 0.38959143 0.15506342 -0.4827868
-0.037910394 -0.10054749 0.04187123 0.033789083 -0.061900206 -0.15509152 -0.26363996 -0.046266153
-0.10427932 -0.27392456 -0.16788282 -0.43692496 -0.534318 -0.45022088 -0.18192933 -0.05508902
-0.18385181 0.0008080031 -0.27455398 0.12325686 -0.10249561 -0.5795936 -0.022182917 -0.25769964
-0.16264547 -0.5241583 -0.33165556 -0.07273603 0.110120945 -0.106304996 0.025219252 0.007644241
0.045286894 -0.1347572 0.46449727 0.27238703 -0.54731 -0.17704959 0.057736788 0.23614888
0.25142953 -0.17626286 -0.2168065 -1.1927178 -0.22470672 -0.53708726 0.18861987 0.14536476
0.008452249 0.066689044 0.27524513 0.20029768 0.2776239 -0.19656666 0.116867654 -0.5218725
0.3554085 0.0135163255 -0.20902164 0.165166 -0.057020184 0.26058036 -0.11527755 -0.010216471
-0.2227658 -0.30292022 0.34326944 0.16889758 0.0872773 -0.07616798 0.13640566 -0.38471982
0.62073565 -0.41639733 1.0568373 -0.16265243 -0.09695427 0.093480565 -0.42274857 -0.74741393
-0.5869956 -0.1506604 0.58129495 0.012894737 -0.028988065 0.19703984 -0.1933037 -0.093649164
-0.10942322 0.2249209 -0.059000183 0.71982414 0.0063675544 -0.07604746 0.4455225 -0.11329643
0.13273253 -0.32949603 0.047607277 0.3891762 -0.23720545 -0.0421239 0.27939075 0.33638662
0.17074636 0.14962842 -0.64710313 -0.028819399 -0.18256998 -0.0355699 0.5540127 0.3271969
0.28881744 0.040943198 -0.48124525 0.3106441 0.20385532 -0.37159353 0.23404264 -0.6495604
0.2793904 -0.06246362 -0.3435439 -0.3129918 0.34177253 0.50280076 0.02681107 0.15068069
0.115342654 0.20832661 0.36275914 -0.09619223 0.11605425 0.0047372426 -0.19108608 -0.021907344
0.26118878 -0.082882985 0.60258853 0.59061766 0.6964984 0.48158336 -0.5445222 0.029637847
-0.11776025 0.27506053 0.76799 -0.1188947 -0.0649072 0.56385076 0.024331698 0.5505128
-0.05954287 0.26154923 0.46456245 0.5882238 -0.30482236 -0.13058957 0.3135814 0.18131353

net.2.bias f4 [16]
00000000: 1a62 c7be 007f 99bd 7ec1 3b3d da9e ea3d
00000010: 5cc2 c63e 25c5 8fbe a855 c23e 87b1 10be
00000020: e0c0 333f 3128 783d 466b 993e 1e76 26bd
00000030: 0aa7 a4be 0f24 10be cff8 38be abf0 fbbe
-0.38942033 -0.074949265 0.045838825 0.1145608 0.3882016 -0.28080097 0.37955976 -0.14130221
0.7021618 0.060585205 0.29964656 -0.04063999 -0.3215869 -0.14076255 -0.18063663 -0.49207053

net.4.weight f4 [1, 16]
00000000: 2ff3 76bf 254d 7abe 7c3f 66be 2679 803c
00000010: ecca 5b3d f242 7cbe 8323 383e 4806 49be
00000020: 42c8 0e3e f077 973e 335c 133e 4986 643e
00000030: 1a51 1dbf 40f2 b7bc 9d78 a0be c2e9 25bf
-0.9646482 -0.24443491 -0.22485155 0.015682768 0.05366032 -0.24634913 0.17982297 -0.19631302
0.1394358 0.29583693 0.1439064 0.2231685 -0.61451876 -0.022454381 -0.3134202 -0.6480981
